======================================================================
Torch 1.8.1+cu111 | CUDA 11.1 | GPU? True
======================================================================
==> Treinando (coco8, 30 épocas)…
WARNING ⚠️ no model scale passed. Assuming scale='n'.

                   from  n    params  module                                                      arguments                     
  0                  -1  1       464  ultralytics.nn.modules.conv.Conv                            [3, 16, 3, 2]                 
  1                  -1  1      4672  ultralytics.nn.modules.conv.Conv                            [16, 32, 3, 2]                
  2                  -1  1      7360  ultralytics.nn.modules.block.C2f                            [32, 32, 1, True]             
  3                  -1  1     18560  ultralytics.nn.modules.conv.Conv                            [32, 64, 3, 2]                
  4                  -1  1     29056  C2f_CloAtt                                                  [64, 64, 1, True]             
  5                  -1  1     73984  ultralytics.nn.modules.conv.Conv                            [64, 128, 3, 2]               
  6                  -1  1    115456  C2f_CloAtt                                                  [128, 128, 1, True]           
  7                  -1  1    295424  ultralytics.nn.modules.conv.Conv                            [128, 256, 3, 2]              
  8                  -1  1    460288  ultralytics.nn.modules.block.C2f                            [256, 256, 1, True]           
  9                  -1  1    164608  ultralytics.nn.modules.block.SPPF                           [256, 256, 5]                 
 10                  -1  1    296576  ultralytics.nn.modules.block.C3TR                           [256, 256, 1, 'Ture']         
 11                   4  1      4224  ultralytics.nn.modules.conv.Conv                            [64, 64]                      
 12                   6  1      8320  ultralytics.nn.modules.conv.Conv                            [128, 64]                     
 13                  10  1     16512  ultralytics.nn.modules.conv.Conv                            [256, 64]                     
 14                  -1  1         0  torch.nn.modules.upsampling.Upsample                        [None, 2, 'nearest']          
 15            [-1, 12]  1         0  Fusion                                                      [[64, 64], 'bifpn']           
 16                  -1  1     29056  ultralytics.nn.modules.block.C2f                            [64, 64, 1]                   
 17                  -1  1         0  torch.nn.modules.upsampling.Upsample                        [None, 2, 'nearest']          
 18            [-1, 11]  1         0  Fusion                                                      [[64, 64], 'bifpn']           
 19                  -1  1     29056  ultralytics.nn.modules.block.C2f                            [64, 64, 1]                   
 20                   2  1     18560  ultralytics.nn.modules.conv.Conv                            [32, 64, 3, 2]                
 21                  -1  1         0  BiLevelRoutingAttention                                     [64, 8, 7]                    
 22        [-1, 11, 19]  1         0  Fusion                                                      [[64, 64, 64], 'bifpn']       
 23                  -1  1     29056  ultralytics.nn.modules.block.C2f                            [64, 64, 1]                   
 24                  -1  1     36992  ultralytics.nn.modules.conv.Conv                            [64, 64, 3, 2]                
 25        [-1, 12, 16]  1         0  Fusion                                                      [[64, 64, 64], 'bifpn']       
 26                  -1  1     29056  ultralytics.nn.modules.block.C2f                            [64, 64, 1]                   
 27                  -1  1     36992  ultralytics.nn.modules.conv.Conv                            [64, 64, 3, 2]                
 28            [-1, 13]  1         0  Fusion                                                      [[64, 64], 'bifpn']           
 29                  -1  1     29056  ultralytics.nn.modules.block.C2f                            [64, 64, 1]                   
 30    [21, 23, 26, 29]  1    611128  ultralytics.nn.modules.head.Detect                          [10, [64, 64, 64, 64]]        
YOLOv8-LAR summary: 295 layers, 2344456 parameters, 2344440 gradients, 8.9 GFLOPs

New https://pypi.org/project/ultralytics/8.3.206 available 😃 Update with 'pip install -U ultralytics'
Ultralytics YOLOv8.0.221 🚀 Python-3.8.0 torch-1.8.1+cu111 CUDA:0 (NVIDIA GeForce RTX 4090, 24081MiB)
WARNING ⚠️ Upgrade to torch>=2.0.0 for deterministic training.
[34m[1mengine
…
Unzipping /home/jonasvm/lar-yolo/LAR-YOLOv8/datasets/coco8.zip to /home/jonasvm/lar-yolo/LAR-YOLOv8/datasets/coco8...:   0% 0/25 [00:00<?, ?file/s]Unzipping /home/jonasvm/lar-yolo/LAR-YOLOv8/datasets/coco8.zip to /home/jonasvm/lar-yolo/LAR-YOLOv8/datasets/coco8...: 100% 25/25 [00:00<00:00, 7904.83file/s]
Dataset download success ✅ (0.9s), saved to [1m/home/jonasvm/lar-yolo/LAR-YOLOv8/datasets[0m

Downloading https://ultralytics.com/assets/Arial.ttf to '/root/.config/Ultralytics/Arial.ttf'...
  0% 0.00/755k [00:00<?, ?B/s]100% 755k/755k [00:00<00:00, 13.0MB/s]
Overriding model.yaml nc=10 with nc=80
WARNING ⚠️ no model scale passed. Assuming scale='n'.

                   from  n    params  module                                                      arguments                     
  0                  -1  1       464  ultralytics.nn.modules.conv.Conv                            [3, 16, 3, 2]                 
  1                  -1  1      4672  ultralytics.nn.modules.conv.Conv                            [16, 32, 3, 2]                
  2                  -1  1      7360  ultralytics.nn.modules.block.C2f                            [32, 32, 1, True]             
  3                  -1  1     18560  ultralytics.nn.modules.conv.Conv                            [32, 64, 3, 2]                
  4                  -1  1     29056  C2f_CloAtt                                                  [64, 64, 1, True]             
  5                  -1  1     73984  ultralytics.nn.modules.conv.Conv                            [64, 128, 3, 2]               
  6                  -1  1    115456  C2f_CloAtt                                                  [128, 128, 1, True]           
  7                  -1  1    295424  ultralytics.nn.modules.conv.Conv                            [128, 256, 3, 2]              
  8                  -1  1    460288  ultralytics.nn.modules.block.C2f                            [256, 256, 1, True]           
  9                  -1  1    164608  ultralytics.nn.modules.block.SPPF                           [256, 256, 5]                 
 10                  -1  1    296576  ultralytics.nn.modules.block.C3TR                           [256, 256, 1, 'Ture']         
 11                   4  1      4224  ultralytics.nn.modules.conv.Conv                            [64, 64]                      
 12                   6  1      8320  ultralytics.nn.modules.conv.Conv                            [128, 64]                     
 13                  10  1     16512  ultralytics.nn.modules.conv.Conv                            [256, 64]                     
 14                  -1  1         0  torch.nn.modules.upsampling.Upsample                        [None, 2, 'nearest']          
 15            [-1, 12]  1         0  Fusion                                                      [[64, 64], 'bifpn']           
 16                  -1  1     29056  ultralytics.nn.modules.block.C2f                            [64, 64, 1]                   
 17                  -1  1         0  torch.nn.modules.upsampling.Upsample                        [None, 2, 'nearest']          
 18            [-1, 11]  1         0  Fusion                                                      [[64, 64], 'bifpn']           
 19                  -1  1     29056  ultralytics.nn.modules.block.C2f                            [64, 64, 1]                   
 20                   2  1     18560  ultralytics.nn.modules.conv.Conv                            [32, 64, 3, 2]                
 21                  -1  1         0  BiLevelRoutingAttention                                     [64, 8, 7]                    
 22        [-1, 11, 19]  1         0  Fusion                                                      [[64, 64, 64], 'bifpn']       
 23                  -1  1     29056  ultralytics.nn.modules.block.C2f                            [64, 64, 1]                   
 24                  -1  1     36992  ultralytics.nn.modules.conv.Conv                            [64, 64, 3, 2]                
 25        [-1, 12, 16]  1         0  Fusion                                                      [[64, 64, 64], 'bifpn']       
 26                  -1  1     29056  ultralytics.nn.modules.block.C2f                            [64, 64, 1]                   
 27                  -1  1     36992  ultralytics.nn.modules.conv.Conv                            [64, 64, 3, 2]                
 28            [-1, 13]  1         0  Fusion                                                      [[64, 64], 'bifpn']           
 29                  -1  1     29056  ultralytics.nn.modules.block.C2f                            [64, 64, 1]                   
 30    [21, 23, 26, 29]  1    754512  ultralytics.nn.modules.head.Detect                          [80, [64, 64, 64, 64]]        
YOLOv8-LAR summary: 295 layers, 2487840 parameters, 2487824 gradients, 9.9 GFLOPs

Freezing layer 'model.30.dfl.conv.weight'
[34m[1mtrain: [0mScanning /home/jonasvm/lar-yolo/LAR-YOLOv8/datasets/coco8/labels/train...:   0% 0/4 [00:00<?, ?it/s][34m[1mtrain: [0mScanning /home/jonasvm/lar-yolo/LAR-YOLOv8/datasets/coco8/labels/train... 4 images, 0 backgrounds, 0 corrupt: 100% 4/4 [00:00<00:00, 1256.53it/s]
…
